checkpoints/smallcnn_cifar10.pth (torch, 382155 bytes, 8 tensors)

features.0.weight f4 [32, 3, 3, 3]
00000000: 921e 12bd ec5b 093d 6592 a6bd a24e b03d
00000010: f777 debc bc0f 7dbc 200b 01be 17e2 0e3e
00000020: 5164 a63d dbdc 70be 3201 303e 5179 603e
00000030: 49c1 e03d 4163 1f3e 2645 603e e442 823d
00000040: befd a83e d339 103e 53c8 97be 520a e2bd
00000050: 913b 21bd 317a 5bbe 37bd 1cbe c6d0 ec3d
00000060: 4744 51be 9c45 b1bd e963 78bd ca4f e2bd
00000070: a374 3a3e 320e 89be 4ea0 603e 5c2f 40be
00000080: f10c c43d f898 afbd 11a9 4bbe d59c 4a3e
00000090: 8724 b93c 8c26 8e3e 160d a4bd f285 9c3c
000000a0: bae0 3b3d edd8 96bd c575 0a3c 7fb5 6a3d
000000b0: 5afb 413e 7a6c d5bd 65fd 3a3e 577e 99bd
000000c0: 0fbb 1f3e 0074 10be 0eb4 5dbe aacd 0abe
000000d0: 1a67 7fbe 769d 673e b1a9 f83d f320 013d
000000e0: 61a0 16bd 7429 3c3d 00cb 343e b56a 57be
000000f0: 2cf3 71bd 9e01 ebbd b8b5 2e3d abfe a83d
00000100: 662c 6c3d 8faf 15be b9be 9a3e 0ac3 24bd
00000110: 2187 45be a1de f3bd 407f 493e f0f9 623c
00000120: e300 b73e 8a69 18be eae6 9ebe 27f1 653c
00000130: b054 7bbd d686 cbbc 9d21 a13d 1ae8 2e3e
00000140: 8967 37be 2427 95bd 4db0 52bd f270 85bd
00000150: c56a 693e 3b61 70be b0db 973e 2b22 25bd
00000160: 2903 4cbe a503 2a3e 9272 213e d63d 3cbe
00000170: 081b 043e 0728 883e b5f7 abbe a5cf ab3d
00000180: 7a47 833e f857 45be 2186 ac3c 005a 19bc
00000190: 0597 24be 206f cd3d 9030 1c3e 008b 82be
000001a0: e1d1 643e d201 7fbc b9fc 68be d345 1b3d
000001b0: e1b1 2cbe c131 363b 253e 973e dc4e 90bd
000001c0: 72fa 313e 1490 9dbc 2f33 54be a937 453d
000001d0: a055 d43d 86a1 90be 4737 74bd 2c9f 66bd
000001e0: 0e6c 30be 22d8 2bbc 0976 163e 47a1 85be
000001f0: 3c6d 76bd 3bed 24bd 23c6 debd 9b95 a6bd
00000200: ddba 563e ff45 08be 734e 953e d215 683e
00000210: 7ba3 82be 3a12 6d3e c207 0eb9 3a5f 45be
00000220: d736 24bd e220 92be 9838 1cbd aa5b 3c3e
00000230: 5ae3 013d a712 84be cfef aa3e ef40 80be
00000240: d8a2 15be 2ebb 483e 59f2 8a3c 1931 b43d
00000250: 51c8 e83e de56 27be 6bcf c7bd 52b1 923d
00000260: 1076 26be 1668 82be 2926 933e 67c1 68be
00000270: 2e67 e33c dc47 823e 5d40 033d 706a 7ebe
00000280: 4c08 833e 72f5 f2bd 2b5b 6e3e 60a5 9fbb
00000290: 357d 913e 67db 01bd c981 3cbe 1c82 1e3e
000002a0: f6d6 f73d 0031 03be 3ae1 ecbd 59be 963d
000002b0: e8b6 103e c479 8a3c 8ff8 7ebe 460b 95be
000002c0: a006 90be 193b 163c 98e0 8b3c 5f17 8fbe
000002d0: 02a1 4a3e c60d 6d3e 36cd 323e 4e70 bbbd
000002e0: a5bb cd3c 6db5 b73d 5831 a73d d02f 9bbd
000002f0: d30f 9cbd 4386 01bc 50e0 42be 9a2f 0bbe
00000300: 73c5 443e 7f4c a73e d906 f53c 58b7 14be
00000310: b150 f0bc cede 163e 5c5b 303d 9cb6 efbd
00000320: 7002 95be e030 e03c 9a97 a13e b2fc b53d
00000330: 3e5b 2bbd 3ec0 fabd 1506 f33c 99f4 3abe
00000340: 37ce 65be ec3e 92bd 05a4 643e c3f6 5d3e
00000350: d0da 2cbe d483 d1bd bb91 a3bc c982 9c3e
00000360: 9046 393e d7e7 41be 01bf 803e 0fb3 dabd
00000370: 1bfb cdbe 8d4b 293e 368d 8f3d a784 12be
00000380: f29c bbbc 3a21 6b3e e6ca d3bc 81eb 3d3e
00000390: 4b4b 1fbe f510 d8be f78b 01be 8293 a63e
000003a0: 84f1 0d3d 99a2 b33e f404 333e 01bf 64bd
000003b0: 1e86 993d 91b1 04be c2d4 93be 7901 0cbe
000003c0: 6284 883e 77a0 8ebd f489 0d3e 8e4f 61be
000003d0: e599 bd3d 341d 43be b18d 4dbe 8154 9c3e
000003e0: 14dc 9ebd c753 443e 7e0c 5f3e 1495 09bd
000003f0: 6cc8 2dbe bc4f 7a3b 9f51 04be fd37 a0be
-0.035673685 0.03353493 -0.08133391 0.08608748 -0.027156813 -0.015445646 -0.126019 0.13953434
0.081246026 -0.2352175 0.17187956 0.21921279 0.10974366 0.15565206 0.21901378 0.063604146
0.3300609 0.14084558 -0.29645023 -0.11037125 -0.039363448 -0.21433331 -0.15306555 0.11563258
-0.20436202 -0.08655855 -0.060642157 -0.11050375 0.18208556 -0.26768643 0.21936151 -0.18768066
0.09572781 -0.08574098 -0.19888712 0.19786389 0.022600425 0.27763784 -0.080103084 0.019106839
0.045868613 -0.07365594 0.00845093 0.057301994 0.1894354 -0.10421081 0.18260725 -0.074948005
0.15598701 -0.1410675 -0.21650717 -0.13555017 -0.24941674 0.2261866 0.12141741 0.031525563
-0.036774043 0.04593797 0.17655563 -0.21036799 -0.059069797 -0.11474918 0.04265377 0.08251699
0.05765953 -0.14617752 0.30223635 -0.040225066 -0.19289829 -0.119076975 0.19677448 0.013853535
0.35742864 -0.1488401 -0.31035548 0.014034546 -0.06136006 -0.024844568 0.07867739 0.17080727
-0.1791059 -0.07282856 -0.051437665 -0.06515683 0.22794636 -0.2347459 0.29659796 -0.04031579
-0.1992308 0.16602953 0.15766361 -0.18382964 0.12900937 0.26593038 -0.33587423 0.083892144
0.2564047 -0.19271839 0.021060051 -0.009359837 -0.16073234 0.10030961 0.152529 -0.25496674
0.22345687 -0.015564399 -0.22752656 0.037908386 -0.1686473 0.0027800652 0.295396 -0.07046291
0.17380694 -0.01923374 -0.2072265 0.048148785 0.10367894 -0.28248233 -0.05962303 -0.056304142
-0.1722872 -0.010488542 0.14693464 -0.26099607 -0.060162768 -0.040265303 -0.10877635 -0.08134004
0.2096972 -0.13307951 0.29161415 0.22664574 -0.2551535 0.23151484 -0.00013545065 -0.19274607
-0.04009136 -0.28540713 -0.03813991 0.18394342 0.03171096 -0.2579548 0.33386084 -0.2504954
-0.14612901 0.19602653 0.016961263 0.08798427 0.4546533 -0.16341731 -0.09756359 0.071627274
-0.16255975 -0.25470036 0.2874005 -0.22730027 0.02775916 0.2544545 0.032043803 -0.2484529
0.25592268 -0.11863221 0.23276965 -0.004872009 0.28415838 -0.03170338 -0.18408884 0.1547932
0.121015474 -0.12811661 -0.11566396 0.07360525 0.14132273 0.016903765 -0.24899505 -0.29110163
-0.28130054 0.009169363 0.017074868 -0.27947518 0.19787982 0.23149785 0.17461094 -0.0915228
0.02511389 0.08970151 0.081637084 -0.07577479 -0.07620206 -0.007905546 -0.19030881 -0.13592377
0.19215946 0.3267555 0.029910492 -0.14523065 -0.029335352 0.1473343 0.043055877 -0.11704752
-0.29103422 0.027367055 0.31560975 0.088860884 -0.041835062 -0.122436985 0.029665986 -0.18257369
-0.22441946 -0.07140908 0.22328193 0.21676163 -0.16880345 -0.10230222 -0.01996695 0.3056853
0.18093324 -0.18936096 0.25145724 -0.10678684 -0.4023064 0.16532727 0.07009356 -0.14308415
-0.022901986 0.22961894 -0.025853585 0.18546869 -0.15556066 -0.42200437 -0.12651049 0.32534415
0.034654155 0.3508499 0.17482358 -0.055846218 0.07496284 -0.12958361 -0.2887326 -0.13672437
0.266635 -0.069642 0.13822156 -0.22003004 0.09257869 -0.19054109 -0.20073582 0.3053322
-0.0775682 0.19172584 0.21782109 -0.033589438 -0.16970986 0.0038194498 -0.12921761 -0.31292716

features.0.bias f4 [32]
00000000: 63d6 80be 70bb 613e a21f 413e 2969 5a3b
00000010: 9dd6 2cbe cb94 2ebe 65f4 04be 64ce 803e
00000020: 7798 71bc 6bb8 adbc 1b77 c9be 7296 f6bd
00000030: 9b69 2f3e 3fe1 9c3c 0070 9d3c 4219 25be
00000040: 35fe 1b3d 04b9 9a3c 6bf1 18bd 89fd d63e
00000050: db1c c73e fe9d 233e 8f1f cb3d dd6e a7bd
00000060: 25b5 b9be 91c3 a13c 18d3 84bd a544 263e
00000070: b3aa 8fbd 1087 debc 0922 283d 1553 c93b
-0.25163564 0.22044158 0.18859723 0.003332684 -0.16878743 -0.17048948 -0.12983854 0.25157464
-0.014745823 -0.021206101 -0.39348683 -0.12040414 0.17130129 0.019150374 0.019218445 -0.16122916
0.038084228 0.01888705 -0.03733961 0.41990307 0.38889202 0.15978238 0.09918129 -0.08175442
-0.36271015 0.019746574 -0.064855754 0.16237123 -0.0701498 -0.027164012 0.041048083 0.0061439374

features.3.weight f4 [64, 32, 3, 3]
00000000: ab9d 63bc 4d58 e5bd 8bed 86be 8745 ab3c
00000010: d4a7 d03c efc2 bbbd 6700 1d3e eadf 663c
00000020: a9ca 74bc ecaa ec3d a21b a23c d2a7 4d3d
00000030: eb8b cfbd c43b 10be 2d57 7dbd 7fca 143d
00000040: 83c5 7cbb b917 9a3d 92fc b33d 7348 8d3c
00000050: f1ea 103d 3729 80bd 4ff7 0abe fd28 2f3c
00000060: 9907 85bd c59e c3bd 4240 17bc 9869 aebd
00000070: 54f0 20be 4791 413d e9eb efbd c850 46be
00000080: d8a0 19bd 7cbd 2abd 64f3 91bd f46b cb3b
00000090: e4d5 8b3d 4497 25be 3756 fdbc 37fa ebbb
000000a0: 0258 8bbe 0d34 f1bd 52a9 ef3a 7f64 8cbe
000000b0: 97a5 20be b4dc 053d 3e42 393d 971b 523d
000000c0: aa3f ecbd c7c9 34be 9499 aebc 48dc 30bd
000000d0: 33d8 16be 0652 c43d 66b0 af3d ad3a 083d
000000e0: 7c90 1a3e 8240 c03c 1e4a 153d 5486 27bd
000000f0: 20e6 a838 bcb9 c4bc f7a4 c73d f460 8b3d
00000100: 955c b93d e4c4 003e 9215 debd a55c e0bc
00000110: 588c e23d 0a98 cb3d 8cbd 3f3d 9f40 c63d
00000120: 042d f93d bf94 3b3d 80ac 513e 5ddf 30bc
00000130: 41a3 8bbd e8cf 22bc 4dcb 78bc 5330 0abe
00000140: 69d2 9cbd 482e 103e 1979 1a3e dfbc ba3d
00000150: 9b7c ec3d 6c2a 8dbd ce30 803d 85b9 1c3e
00000160: 0d82 81bd 8b35 983d d077 82bd 84f7 11be
00000170: 393a c2bd 496f b2bc db86 a1bd a49f f0bc
00000180: 6da7 b33d fd34 db3c 0a59 fd3d 26a8 833c
00000190: 41a9 a1bd 34c7 323c 5abc 99ba 1f2f 1abe
000001a0: 9ef8 82bc b58c 00bd b076 18be 6578 00bd
000001b0: 9362 b3bc 1666 17bb f822 d03a 2098 8ebd
000001c0: 5956 1cbd 50b9 e3bc b94d 393d aa3b 053d
000001d0: ecd5 673d 69a1 19bd dec0 89be f49d 623d
000001e0: dac8 aabd e028 3fbe 7cca b2ba cc52 1b3d
000001f0: 0e84 72be 6f1f 0abc 3d2a d53c 29fc 07be
00000200: cb1d d93d ff78 75bd f50d 90be 2a0c 4fbe
00000210: 4ef8 a2bd 449e b3be 0133 c6bd 5b94 bbbd
00000220: 97f6 34bd a1b4 d93c c2bd b9bd 869b e0bc
00000230: 6dea c43d affe bcbd b52d 94bd fba4 cf3c
00000240: 98de edbd befd aa3d 33d5 153e 9eff 68be
00000250: beb7 95be a133 213d d377 edbd 1bf5 29be
00000260: 93dd 6b3d c5b5 aabd 491b 843c 9979 66bd
00000270: 448a 1fbd 83bf 913c 8b14 403d 6ba9 56bc
00000280: 0238 c13c a80c d7bc 532e acbd f220 4dbe
00000290: 3a7a 74be 90ee 413d fdaa 0a3d b44a 903c
000002a0: 8512 3b3d 27b7 af3d 13de e73b 8691 b23d
000002b0: b0a9 b73d edb2 d73d 7390 003d 7cf2 8fbc
000002c0: a573 50bd 615d ce3c 9b12 8abd 1007 753b
000002d0: fde5 e33c e491 c03c 53b1 a3bd 020f e8bc
000002e0: fd71 6abd 9131 8dbd 56b8 dabc 19ff 82bd
000002f0: 0eba 8ebc 660e ff3d fef2 2a3e 5d0b f83d
00000300: f369 b9bd bb5c f8bd ed96 d63c 4b6b c43d
00000310: e37a 613c bef6 ba3d 6f62 173e 1b7d fabc
00000320: 199f 0b3d a584 5b3c fd53 62be 6551 9ebd
00000330: bfde a7bd f3a4 27be 73cd 90bd 8970 883d
00000340: 0248 9fbd 297c 8b3d 8ab7 eebd 8a96 8bbe
00000350: 0691 2ebc 1a14 10bd 97a1 9abe 4417 91bd
00000360: b5bc 613d 5a7d 173d c22b 87bd 46e3 5a3d
00000370: e11f 9fbd 7a0b 5bbd fcb6 f53c 9be8 e2bc
00000380: b070 7dbd be04 a43c c413 ac3d 70ba 5f3d
00000390: e742 b73c 799d 63bd 528e 533d 3005 f8bc
000003a0: d350 69bd 211b edbc a20d 733d 7404 243e
000003b0: 6633 e73d 1755 d3bc 9128 b33d ed96 703d
000003c0: d18e ec3d ea02 213e 74ba c03d 2af7 cb3b
000003d0: c14c 5c3d 318c 433b 9fd6 873c 7c92 3ebd
000003e0: db31 22bd e411 9fbd de86 a1bd 19f2 01be
000003f0: 98e1 873d 74c8 463c f95d 71bb 8347 c9bd
-0.013892571 -0.11198483 -0.26353106 0.020907177 0.025470652 -0.0916804 0.15332185 0.014091471
-0.014940896 0.11556038 0.019788567 0.050208874 -0.10134109 -0.14085299 -0.061850715 0.036325928
-0.0038569875 0.07524056 0.08788408 0.01724646 0.035380308 -0.06257861 -0.13570903 0.010690925
-0.0649559 -0.09551767 -0.009231629 -0.08516234 -0.15716678 0.047257688 -0.11714918 -0.19366753
-0.03750691 -0.041684613 -0.07126501 0.0062079374 0.06827906 -0.16170985 -0.0309249 -0.007201459
-0.27215582 -0.11777506 0.0018284714 -0.27420422 -0.15688168 0.032681182 0.04522919 0.051295843
-0.115355805 -0.17655097 -0.021313466 -0.043178827 -0.14730911 0.09585957 0.08578567 0.033259083
0.15094179 0.02346826 0.036447637 -0.04089959 8.0537284e-05 -0.024014346 0.097482614 0.06805602
0.09050862 0.12575108 -0.10843958 -0.027387926 0.11061925 0.099411085 0.046811625 0.09680294
0.12166789 0.045796152 0.2047596 -0.010795441 -0.068182476 -0.009937264 -0.015185189 -0.13494997
-0.0765732 0.14080155 0.15085258 0.091180556 0.11547204 -0.06892857 0.06259309 0.15305145
-0.06323633 0.074320875 -0.06370509 -0.14254576 -0.09483761 -0.02178158 -0.0788705 -0.029372998
0.08772168 0.026758665 0.123704985 0.01607139 -0.07893611 0.010911752 -0.0011729107 -0.15057038
-0.01598769 -0.03138419 -0.14889026 -0.031364817 -0.02189759 -0.002310162 0.0015879562 -0.06962609
-0.038168285 -0.027798325 0.045240138 0.032527603 0.056600496 -0.03750745 -0.26904958 0.055326417
-0.08339091 -0.18667936 -0.0013640667 0.037920758 -0.23683187 -0.008430346 0.026021117 -0.13279785
0.10601386 -0.059929844 -0.28135648 -0.20219484 -0.079575166 -0.35081685 -0.09677697 -0.09159156
-0.04418048 0.026575388 -0.090693966 -0.02741791 0.09615026 -0.092282645 -0.072352804 0.025347224
-0.11614722 0.08349179 0.1463211 -0.2275376 -0.29241747 0.039355878 -0.1159512 -0.16597407
0.057584357 -0.08335451 0.016126292 -0.05626831 -0.03895022 0.017791515 0.04689459 -0.013101916
0.023586277 -0.026251152 -0.08407273 -0.20032099 -0.2387475 0.04734665 0.033854473 0.017613746
0.04567196 0.085798554 0.007076034 0.08719163 0.08967912 0.10532174 0.031387758 -0.01757168
-0.050891537 0.02519101 -0.0674183 0.0037388243 0.027819628 0.023507066 -0.07992806 -0.028327469
-0.057237614 -0.0689422 -0.026699226 -0.06396312 -0.017422702 0.12453918 0.16694257 0.121115424
-0.09053411 -0.12127062 0.026195014 0.09590777 0.013762209 0.091290936 0.14783643 -0.030577233
0.034087274 0.013398324 -0.22102351 -0.077303685 -0.08196782 -0.16371517 -0.07070436 0.066620894
-0.07777406 0.06810791 -0.11656101 -0.2726329 -0.0106546935 -0.03517542 -0.30201408 -0.07084516
0.055111606 0.03698478 -0.06600143 0.0534394 -0.07769752 -0.05347774 0.02999448 -0.027698806
-0.061875045 0.020021793 0.084022075 0.05462116 0.022370769 -0.0555701 0.0516494 -0.030275911
-0.056961846 -0.0289436 0.059339173 0.16017324 0.112891 -0.02579741 0.08747972 0.058737684
0.115506776 0.15723768 0.09410563 0.0062245326 0.053784136 0.00298382 0.016581831 -0.046526417
-0.039598327 -0.07767084 -0.07887052 -0.12690009 0.066348255 0.012132753 -0.0036829694 -0.09828093

features.3.bias f4 [64]
00000000: 1d48 53bd 6b64 bbbd 07d9 adbd d599 933d
00000010: 5ea7 93bd 2976 d63e 956c 82be ea45 653d
00000020: e840 843c ef1e 9bbb fc95 ad3d 3d05 cf3c
00000030: ccf7 033e 0270 d83d eb60 2b3e 1f8f 50bd
00000040: 96fe 583d 3d16 323d d55d 2b3e 0c7b 92bd
00000050: abc4 e73c 2a8b 973d b289 d4bc 99e9 aabd
00000060: 8ba0 283e e773 23bd 2af8 493e 815d 9abd
00000070: d154 92bd 64ec 053d ab9b ddb9 09d8 013e
00000080: e304 a8be 3d19 103d feb7 e93d 4e6d acbd
00000090: 48f6 b83d b870 963b 8345 0d3d 3bec cfbd
000000a0: 95a3 4fbd dccd 31bd 60b8 41be 6156 003d
000000b0: 9148 7dbd 2885 6e3d 20aa 6abe 6133 353b
000000c0: 86a1 3dbe 0e61 80bd 5721 de3d 0903 4a3e
000000d0: bc06 803e f8f9 573d 18b9 ad3d f213 373e
000000e0: 8cdb b7bc c0f4 833e 6311 98ba 6b9c a7ba
000000f0: 3401 793d 04c3 003f 9990 6fbc 78d6 71be
-0.051582444 -0.091500126 -0.0848866 0.072070755 -0.07209657 0.41887024 -0.25473467 0.05597488
0.016144231 -0.004733912 0.08475873 0.025271052 0.12887496 0.10568239 0.1673619 -0.05091774
0.052977167 0.04347824 0.16735013 -0.071523756 0.02829202 0.0739959 -0.025944564 -0.083453365
0.16467492 -0.039905455 0.19723573 -0.07537366 -0.07145084 0.032696143 -0.00042268386 0.12680067
-0.32816228 0.03518032 0.11412047 -0.08419286 0.090313494 0.004591074 0.03449012 -0.10152479
-0.050693113 -0.043409213 -0.1891799 0.031332377 -0.061836783 0.058232456 -0.2291646 0.0027649032
-0.18518648 -0.06268512 0.10846203 0.1972772 0.25005138 0.052728623 0.084825695 0.17878702
-0.022443555 0.25772667 -0.0011601861 -0.0012787705 0.060792163 0.5029757 -0.014621877 -0.2361697

features.6.weight f4 [128, 64, 3, 3]
00000000: 3811 14bd b602 d03c 2c78 a7bc 38af f3bc
00000010: b051 27bd 5653 b8bc 5fef 05bd 1bb7 e83c
00000020: 84a2 243b 1eac 16bd 10e4 2fbd a67b b23b
00000030: 748e f5bc 1caa 3abd 8b13 ae3c 2013 5bbc
00000040: 5cd7 ea3b 1705 b5ba 8b1b 04bd 38c9 d9bc
00000050: 641b 0b3c ca38 30bd 97b6 42bc ef74 11bc
00000060: 85f8 efbc 25cd 0f3d 6070 2bbd aed7 35bd
00000070: bd80 85bd eed5 8fbc 38bc 3dbd 7110 993c
00000080: 7ab4 493c babc ec3c 42ba 1b3d f86a 8ebc
00000090: 50f9 f9bc cd34 7e3c ef90 bf3c 2d39 5f3b
000000a0: 37e8 fbbc df5c 1b3d a8ee 6e3c 6b1d 0c3d
000000b0: d1a8 f63a a010 33bd ca31 ca3c f760 36bd
000000c0: 6965 20bd 8398 203d ef4f febb 17ab 9a3c
000000d0: b8a9 9d3c c041 2abb 6139 60bc b5e2 db3a
000000e0: 1b8b bcbc 511f 553c 56a7 97bc 0b07 0dbd
000000f0: ec80 23bd ba24 6ebd c8c6 0fbc d03d dfbc
00000100: 68d7 503b d6ca 17bc e435 34bd 96d2 2fbd
00000110: 3a62 87bc 25a6 3aba b9b5 0dbc f714 39bb
00000120: 5c36 aabc e0b4 89bc 86a1 c2bb efe4 9e3c
00000130: e3c4 13bd b20b 8e3c 4a3b d83c c54b 1ebd
00000140: 42e0 6c3c db29 cabb c9fc 883b 8ff7 0bbd
00000150: 1970 6e3c afc9 11bd 7ec2 f5bc cd9f 0f3c
00000160: 29f9 8dbc ae7c a23c 0943 39bc 817a 1fbd
00000170: abd8 29bd 17cb 97bb a27c 49bd cb9a bb3c
00000180: 75e0 073d fa12 fa3b a86a 45bd 8029 81bc
00000190: 7ad3 d43c 901b cf3b 12dc 10ba dc08 bdbb
000001a0: 9a59 c6bc 710e 81bc 5e32 b33c 491f 34bc
000001b0: ae5a d0bc 4caa 0c3b d2cf 17bd 65e8 62bc
000001c0: 9907 2b3d 5f8c b23c b4ca 89bb 426f 9cbc
000001d0: 00fe 033d ee59 e3bc 7ced 103d 2d00 8fbc
000001e0: 25d4 11bd 364d 5dbc 03b0 d13c 8e66 df3c
000001f0: 137d 04bb d344 d13c e0a8 9fbc 6b86 24bc
00000200: aa84 c83c bd1e ebbb e40f e03a 54f1 8a3c
00000210: 6b0f 4abb e365 fdbc c6d3 60bb 8c30 babb
00000220: 5576 46bc af56 053d 14d7 f33c b4a4 33bd
00000230: bcc0 91bc 3421 80bc e389 053c f8c3 b6bc
00000240: 1406 3bbc e2cc 8abc c16c 0bbd fb8e 2cbd
00000250: 5f90 1cbd 279e 293a cd17 673c 1e88 02bc
00000260: d46c 033d 8e0c 95bb 5f33 bf3b b26c 49bb
00000270: 6429 40bd da8f b13a e3d6 66bd 73c3 aebb
00000280: dca7 0c3c dd8f 053c 6c6d 4b3c e52e 813c
00000290: 643f 16bd 1905 49bd c41e 73bc 9087 0abd
000002a0: 56dd 5ebc 77af f63b 2620 4dbc 4c58 103a
000002b0: 34c8 20bd 7ffe 94bb a7b8 1fbd 67c8 7cbc
000002c0: 794e c43c f598 05bc c496 573c e912 393c
000002d0: 675d cf3c 64f1 393c c0d4 1dbd a8e9 cabb
000002e0: 2e51 f33a d658 9cbc 2f1d 08bd 4ae9 e4bc
000002f0: 5b28 963c 2acf cdbc 1510 53bc 2fc8 ed3a
00000300: fdec 23bc b195 7cbc 8ccc 8cbc fa60 ed3c
00000310: 14ae 823b eb2d b9bc c76b 273c 1425 4cbc
00000320: f03d 0d3d 39e2 1dbd 2787 fabc f455 a73c
00000330: d4c1 09bd f947 853c d155 0cbd f4fb fe3b
00000340: d20a 023d a261 1c3a c5b6 53bd 5d44 12ba
00000350: 0239 fabc b5cd c1bc e603 50bd 4574 38bd
00000360: 529c 83bc b23f da3c af78 e5bc f472 32bd
00000370: f0c6 f1bc 0a38 823c 4c22 25bd 5599 34bd
00000380: 02c9 703b 149f 34bd 958d 763b 43cb 17bc
00000390: 31ee 063d 95f9 a5bc dab8 31bd bcc0 efbc
000003a0: 9bc1 e1bb a035 b0bc d97a 093d e43a 21bd
000003b0: affb 3dbd 1844 663c c42e 42bc a2cb eb3c
000003c0: a82a 063c d17e cc3b 0111 b53c bc87 08bc
000003d0: 3b6b bebc 186b a9bc b005 89bc b60e 2bbd
000003e0: c78d 023d de04 2b3c 4524 a2bc bd9f 023d
000003f0: 3d58 2e3c 3b47 3b3c e37a 943c d3dc c4ba
-0.036149234 0.025391918 -0.020443045 -0.029746637 -0.040849388 -0.022500675 -0.032698985 0.028407624
0.002512128 -0.036785237 -0.042942107 0.005446869 -0.029975154 -0.045572385 0.021249553 -0.013371259
0.007166786 -0.0013810721 -0.03225283 -0.026585206 0.008490417 -0.04302291 -0.011884353 -0.008877977
-0.029293308 0.03510775 -0.041855216 -0.04439514 -0.065186955 -0.017558064 -0.046322078 0.018684598
0.012311095 0.028898586 0.038019426 -0.017384991 -0.03051439 0.015515518 0.02338454 0.003406118
-0.030750377 0.037930366 0.014583267 0.034207743 0.0018818622 -0.043717027 0.024681944 -0.044526067
-0.039159212 0.039207947 -0.0077609937 0.01888041 0.019245967 -0.0025979131 -0.013685555 0.0016775938
-0.02301555 0.013007955 -0.01851241 -0.034430545 -0.03991787 -0.058140494 -0.0087754205 -0.027251154
0.0031866673 -0.009264668 -0.043996707 -0.04292544 -0.01652633 -0.00071200944 -0.008649283 -0.0028241256
-0.020777874 -0.01680988 -0.0059396653 0.019396273 -0.036076438 0.017339561 0.026395459 -0.03864648
0.014457764 -0.0061695403 0.004180525 -0.034171637 0.014553093 -0.03559273 -0.029999968 0.008766127
-0.017330723 0.019834843 -0.011307486 -0.03893519 -0.041466396 -0.0046323645 -0.049191125 0.02290096
0.033173043 0.0076316567 -0.04819742 -0.015766859 0.025979746 0.0063204244 -0.0005525957 -0.0057688784
-0.024212647 -0.015753957 0.021874603 -0.010993787 -0.025433864 0.002146381 -0.037063427 -0.0138493525
0.041755293 0.02179545 -0.0042050723 -0.01909602 0.032224655 -0.027752843 0.035382733 -0.017456139
-0.035602707 -0.013507178 0.025596624 0.027270582 -0.0020216152 0.025545513 -0.019489706 -0.010041813
0.024477322 -0.007175295 0.001709458 0.016960777 -0.0030831944 -0.030932372 -0.0034305914 -0.005682057
-0.0121131735 0.03255337 0.029765643 -0.043858245 -0.017792098 -0.015640832 0.008150551 -0.022310242
-0.011415023 -0.016943399 -0.034039263 -0.042128544 -0.03822362 0.0006470405 0.014104796 -0.007967023
0.03208621 -0.004548616 0.0058349813 -0.0030734953 -0.046914473 0.00135469 -0.056357276 -0.005333358
0.008584943 0.008151975 0.012416225 0.015769431 -0.036681548 -0.049077127 -0.014838878 -0.03382069
-0.013602575 0.0075282413 -0.012519872 0.00055063213 -0.03925343 -0.00454694 -0.038994458 -0.015428639
0.0239632 -0.008154144 0.013158504 0.011296012 0.025313092 0.011349056 -0.038532972 -0.006192405
0.0018563622 -0.019085329 -0.033230957 -0.027943272 0.01832979 -0.025123198 -0.012882252 0.0018141324
-0.010005233 -0.015416549 -0.01718738 0.028976906 0.003988037 -0.022604903 0.010218567 -0.012460012
0.034482896 -0.03854582 -0.030582024 0.020426728 -0.033632115 0.01626967 -0.03426153 0.0077815
0.0317486 0.0005965476 -0.051687974 -0.0005579645 -0.030544762 -0.02365766 -0.050784968 -0.04503276
-0.01606575 0.0266417 -0.028011648 -0.04356666 -0.029513806 0.015895862 -0.04031591 -0.04409154
0.0036740904 -0.04409702 0.003762101 -0.00926477 0.032942 -0.020260612 -0.04338918 -0.029266708
-0.0068895346 -0.021509945 0.033564422 -0.039362803 -0.046382602 0.014054321 -0.01185197 0.028783623
0.008188881 0.0062407036 0.022102835 -0.008333143 -0.02324449 -0.02068095 -0.016726345 -0.041762076
0.03187349 0.010438172 -0.019792685 0.03189062 0.010641155 0.011430557 0.018125003 -0.0015019424

features.6.bias f4 [128]
00000000: 96b2 08bd e4ff 863d 5053 d1bd 0f11 7d3e
00000010: a35c e03d 0d5a f03d be65 5d3d 8b62 713d
00000020: 0893 f13d 9a10 4f3d d4c2 303e 4c24 35ba
00000030: f3a3 723d 20f9 0b3e d017 3c3d 4e85 423d
00000040: 10e0 1f3e f143 44bd 9d01 933e d4dc 0bbe
00000050: b097 a9b9 129f a3bd 8218 5f3d 18c5 89bd
00000060: af07 ad3c 81d8 133a 8890 713d 6eb1 6e3d
00000070: 02e2 523d a0e7 68bd 285d b73d d148 b73d
00000080: af8f 883c b310 1dbe 4245 043d 62a0 69bc
00000090: 8a3c 373e 0c1d 1c3e 07dc b0bb b8cd 9a3c
000000a0: 1003 f5bc 47f1 a13d 6d53 65bd 021e a83d
000000b0: 3478 04be 9678 bdbc 3e2b cfbd f020 e13b
000000c0: 1175 923b ee82 5c3e 0958 a9bd 5677 ba3d
000000d0: 7d42 b13c 0120 aabd d359 b03d 7305 8fbc
000000e0: 11a7 1dbd fa49 17bb fe7b 913d 6622 d9ba
000000f0: ca16 873c bd52 0b3e acb6 273e 8945 5abd
00000100: 8635 44bd 0bcf 97bd 86ad b8bc ded6 48bd
00000110: ca59 593d 8d3b 863e 5695 0b3e aeb5 063d
00000120: bec3 a2bc ca2b e73d 3406 f43d fe6e 38be
00000130: 2756 9b3b f3dc 16bd ad42 703e 5010 643e
00000140: ed82 cb3d c665 963d 33bc 9b3c a8b9 71bd
00000150: 392a 37bb 9aa3 543d 2038 4cbd f40a 743d
00000160: b347 7abc 7d75 813e 8dc2 a9bd 3808 41bd
00000170: 3d60 523e c416 e93c f310 04bd dcf0 64bd
00000180: db68 943d eb9e a43e 9663 0b3d c934 1bbe
00000190: 5039 27bd 9076 563e e66b 52bd 4f5f 2e3c
000001a0: 020e 3c3c 0312 71be 0a65 fcbc e69a 193b
000001b0: f588 45bd f0a6 8c3d 7c74 823e 1ced 82bc
000001c0: 6fde b23c aeea 02bd 4fce 4f3e e4d4 a23b
000001d0: 2039 0abc 0e01 dcbd 5022 353e b6a8 113e
000001e0: 9a8f 45be 8879 cb3d 0d69 1fbd f187 46bd
000001f0: 0b3f 94bd 0b6d d03d fdf6 d93d 759b dc3c
-0.033373438 0.06591776 -0.10220969 0.24713539 0.10955169 0.11735926 0.054052107 0.05893187
0.11795622 0.05055294 0.17261821 -0.00069100107 0.059238385 0.13669252 0.045921147 0.04749041
0.15612817 -0.047916356 0.28712168 -0.13658458 -0.00032347208 -0.07989325 0.05446673 -0.06727046
0.021121828 0.00056398666 0.058975726 0.05827468 0.05148507 -0.05686152 0.08953315 0.089494355
0.016670076 -0.15338401 0.032292612 -0.01425943 0.17894188 0.15245456 -0.005397323 0.018896922
-0.029908687 0.07907348 -0.055987764 0.082088485 -0.12936479 -0.023128789 -0.1011567 0.0068703815
0.004469522 0.2153432 -0.082687445 0.09104793 0.02163815 -0.083068855 0.086108826 -0.017458653
-0.038489405 -0.0023084865 0.07103728 -0.0016566038 0.016490359 0.13605781 0.16378278 -0.05328897
-0.047902606 -0.07412537 -0.02254368 -0.04903304 0.053064145 0.2621731 0.13631186 0.032888107
-0.019868728 0.11287649 0.11915246 -0.1801109 0.004740495 -0.036831807 0.23462935 0.22271848
0.099370815 0.073436305 0.019010639 -0.059014946 -0.002794875 0.051913835 -0.049858212 0.05958076
-0.0152758835 0.2528495 -0.08289061 -0.04712698 0.20544524 0.028453238 -0.032242727 -0.055893764
0.07246562 0.32152495 0.03403052 -0.15156855 -0.04082614 0.20943666 -0.05137243 0.0106428405
0.011477949 -0.23542027 -0.030809898 0.0023438274 -0.048226316 0.06867778 0.25479496 -0.015982203
0.02183458 -0.03196209 0.20293544 0.004969226 -0.008436471 -0.10742389 0.1768887 0.14224514
-0.19293061 0.099352896 -0.038918544 -0.048469488 -0.07238587 0.10177048 0.106428124 0.026929596

classifier.2.weight f4 [10, 128]
00000000: d099 cabc c68e 773d 8364 173e 9f60 acbe
00000010: 4724 873e d907 40be 727d f3be 11c3 323e
00000020: 0cce f9bd a860 23be b222 b0be ba7a fabe
00000030: 1de9 9a3d ae96 aabd 6a19 aa3d 8f34 873e
00000040: 8c28 d83d fe1b e03c be9d cc3d bead 3bbe
00000050: fb9b 073d 1038 953d bd02 0b3e 8021 32bd
00000060: 6190 103e ceef d43b 7619 033e ceac a4be
00000070: b410 2ebe ad5a fe3d d595 393d 0537 79be
00000080: 3bf8 0c3e 57eb b53d 0871 13be 174a 06bd
00000090: 124e 033e 0039 6dbe d627 9b3d e828 3abd
000000a0: 2d8d 6ebd 7662 b3be 4575 133e feaa 77be
000000b0: f355 c93c a834 48bc 2f97 023e 8801 dc3c
000000c0: 7b3a ccbd 191e c83d 4ea9 5bbe f205 e9bd
000000d0: ee91 fc3d 7d72 153e b2a3 ce3d 1392 c3be
000000e0: eafe 153e 7aad b2bd 5e97 39be e227 b6be
000000f0: 83c6 6d3d 02a3 97be 2d61 ccbe a306 473c
00000100: f506 f33c f5c5 d83d 5f98 f4bd 6e82 b83d
00000110: e5e0 cbbc 92dc 23be ae90 bdbe 8a8f c63d
00000120: 4785 cbbe fe45 333e 37e4 80be b6c2 873e
00000130: 21b3 783e 5840 b8bd 5ad8 2e3d f232 8bbe
00000140: 58d7 81bd ecb6 60be fb67 7a3e 3e4f 79bd
00000150: 5525 1bbd 1762 8f3b 6d4f d23c f9be 403e
00000160: 1b25 e63d ae65 1e3e 9ff5 d43c 840b 2e3e
00000170: 104e c6be fa7b 9a3d 670c 403e 67f5 c4bd
00000180: 9d9b 893d ee46 fb3d 43f9 76be 7457 0d3e
00000190: 5bc7 d33d 4aef bcbe 6049 1e3d e999 a5be
000001a0: 8844 36be da9b 2c3e b80c e93c 37ea 95bd
000001b0: ab22 3f3d 183c 673d 9890 ca3d dc11 cf3c
000001c0: 70f3 8cba 428b a7bc 4d1a ac3d 6d08 8bbe
000001d0: 37b2 ebbc eb68 9a3d 7d18 dabd 4c1f 0fbf
000001e0: 3ecd b13d 1eed 2bbe 370b 3bbd 7fd7 333c
000001f0: 7922 59be c439 c93d d3af c43d 621a 0fbe
00000200: 19dc 07bd 9902 5bbe e96d 353e e042 09bf
00000210: 6558 80bd f9c8 89be ad8e 7a3c 172a 84be
00000220: dc7e 20be fc7a 08be e774 85be 47da 733d
00000230: c6ea f33d 64dc de3d 3e45 50be 5754 aabd
00000240: 6610 a3be 8305 abbe fcaa e5bd f0e3 463b
00000250: fa9f 283e fe18 703e 3601 293d 03f1 4a3e
00000260: 5cd0 9b3d 1897 ff3d e110 babe cb89 9a3e
00000270: 05b4 c3be 201f cc3d 16da e6be e9fb 4fbe
00000280: b421 2f3e 012e a23e 1160 b93e 7ccd f3bd
00000290: e469 4bbe 817d f4be 435e 62be cb65 77bd
000002a0: 5c41 dc3d e0c9 7dbe 02ba 8bbe 41e4 ebbd
000002b0: 7e02 c33d bd2e 673e 8fcd dd3d 7a57 453d
000002c0: 8d56 9fbc 0d70 afbe f327 573d 0ca2 23be
000002d0: 93d3 223e 1c96 3f3e d212 b9bd 0e38 c03e
000002e0: ef5f 143e 5cd6 db3d fb4c 5d3e 5d64 313d
000002f0: f01e 56bd dd7c 96be cab6 e0be cc8f 003c
00000300: 57cf 34be 57a9 203e 510e 0abd b53e 883e
00000310: 64f6 bebd 9ec8 dcbe 9da9 74be 1e80 843d
00000320: 404b eebe 4080 77be da14 8b3e 37eb 23be
00000330: 72ec f5bc 854f c8bc e52d cebe d417 86be
00000340: 9acd bfbe 4003 abbe 36ef 32be 45d5 853e
00000350: 06a2 8dbd 16d6 28be 4315 3a3d 97db 63be
00000360: 4c5f 0d3e 2448 8abe c0c3 b43d 567e ccbd
00000370: 1328 a4be 5858 5a3e 9d85 1dbe 450d 0c3d
00000380: 93cc 10be b106 42be 1586 fb3d 5034 263d
00000390: 2c78 a1be 3d0b 40bd 2ad7 91bd b9c1 143c
000003a0: a298 a53c e4ab 883e a88f 9fbd dd46 65bd
000003b0: f4c7 5bbd 5742 a9be 1942 6cbe 30b6 58bd
000003c0: 0771 4d3e 8929 d0bd 0823 15be f948 883e
000003d0: 53d7 42bd d47b 7fbe 2a0d 98be 44cd b63e
000003e0: 220b 99be 2e54 61be 44f2 55bc 16b6 143d
000003f0: d278 aa3e a483 773d 34dd ab3d 3f17 e6bd
-0.024731547 0.060438894 0.14784436 -0.33667466 0.26394865 -0.18752994 -0.47556645 0.17457224
-0.121975034 -0.1595484 -0.3440147 -0.48921758 0.07563994 -0.08329521 0.083056286 0.26407287
0.10554609 0.027357098 0.099910244 -0.18327996 0.03310774 0.07286084 0.13575263 -0.04348898
0.14117576 0.0064983135 0.12802681 -0.3216309 -0.16998559 0.12419639 0.045308907 -0.24337395
0.13766567 0.08882778 -0.14398587 -0.0327855 0.1282275 -0.23166275 0.075759575 -0.045449167
-0.058240104 -0.35036057 0.14400204 -0.24186322 0.024577117 -0.0122195855 0.12752984 0.026856199
-0.09972092 0.09771366 -0.21451303 -0.11378087 0.123325214 0.14594455 0.10089816 -0.38197383
0.14648023 -0.08724494 -0.18124148 -0.35577303 0.058050644 -0.29616553 -0.3991789 0.012147578
0.029666403 0.10584632 -0.11943125 0.090092525 -0.024887512 -0.1600211 -0.37024444 0.09695347
-0.3975012 0.17507169 -0.25174114 0.2651574 0.24287082 -0.089966476 0.042686798 -0.27187306
-0.06339902 -0.21944779 0.24453728 -0.060866587 -0.0378774 0.004375707 0.025672639 0.1882285
0.11237546 0.15468475 0.025996028 0.1699658 -0.38731432 0.07543178 0.18754731 -0.09617119
0.06719134 0.12269388 -0.24118523 0.13802892 0.103407584 -0.36901313 0.038644195 -0.32343987
-0.1779958 0.16856328 0.028448448 -0.073200636 0.04666392 0.056453794 0.0989086 0.02527707
-0.0010753702 -0.020452145 0.08403454 -0.27154866 -0.028771503 0.07539543 -0.10649202 -0.5590713
0.08681725 -0.16789672 -0.045664992 0.010976671 -0.21204557 0.09825471 0.09603848 -0.13974908
-0.033168886 -0.2138771 0.17717709 -0.5361767 -0.0626686 -0.26911142 0.015292806 -0.25813362
-0.15673393 -0.13328165 -0.26065752 0.059534337 0.11910014 0.1088188 -0.20338914 -0.08316868
-0.3184845 -0.33402643 -0.11214253 0.0030348264 0.16467276 0.23447034 0.04126092 0.19818501
0.07608101 0.12479991 -0.36341003 0.30183253 -0.38223282 0.09966874 -0.4508826 -0.2031094
0.171027 0.31675723 0.36206105 -0.119044274 -0.19864613 -0.47752002 -0.2210627 -0.06039981
0.10754654 -0.2478404 -0.2729035 -0.11518145 0.0952196 0.22576423 0.10830223 0.048179127
-0.01945045 -0.34265175 0.052528333 -0.15979785 0.15901022 0.18709606 -0.09036793 0.37542766
0.14489721 0.10734245 0.21611397 0.043308605 -0.052275598 -0.29392138 -0.43889457 0.007846784
-0.17657219 0.15689598 -0.03370506 0.26610342 -0.09324339 -0.4312181 -0.23892827 0.06469749
-0.46541786 -0.24170017 0.27164346 -0.16007696 -0.030019972 -0.02445198 -0.4026939 -0.26190054
-0.3746155 -0.33400917 -0.17474064 0.26139274 -0.06915669 -0.16487917 0.045430433 -0.22251736
0.13805884 -0.27008164 0.08826399 -0.09985034 -0.32061824 0.21322763 -0.15383 0.034192342
-0.14140539 -0.18947865 0.122814335 0.040577233 -0.31536996 -0.046885718 -0.071211174 0.00907939
0.020214383 0.26693642 -0.07791072 -0.055975784 -0.053657487 -0.33058426 -0.23072089 -0.052908123
0.20062648 -0.10164172 -0.14564145 0.26618174 -0.04756863 -0.2494958 -0.29697543 0.3570348
-0.29891306 -0.22004768 -0.013058249 0.036306463 0.33295304 0.060428277 0.083918005 -0.112349026

classifier.2.bias f4 [10]
00000000: d7c6 2cbe 2f73 efbd d04b 2c3d f17b a33d
00000010: 448c 893e 824e e43d ee72 85be 417e a3bd
00000020: 3ee1 ac3c ffdb 1e3d
-0.16872726 -0.116918914 0.042064488 0.07982624 0.26864827 0.11147787 -0.26064247 -0.079830654
0.021103498 0.038784023
